1
0
add BA-TCB_cam
RefineDet_novel_cam(
  (vgg): ModuleList(
    (0): Conv2d(3, 64, kernel_size=(3, 3), stride=(1, 1), padding=(1, 1))
    (1): ReLU(inplace=True)
    (2): Conv2d(64, 64, kernel_size=(3, 3), stride=(1, 1), padding=(1, 1))
    (3): ReLU(inplace=True)
    (4): MaxPool2d(kernel_size=2, stride=2, padding=0, dilation=1, ceil_mode=False)
    (5): Conv2d(64, 128, kernel_size=(3, 3), stride=(1, 1), padding=(1, 1))
    (6): ReLU(inplace=True)
    (7): Conv2d(128, 128, kernel_size=(3, 3), stride=(1, 1), padding=(1, 1))
    (8): ReLU(inplace=True)
    (9): MaxPool2d(kernel_size=2, stride=2, padding=0, dilation=1, ceil_mode=False)
    (10): Conv2d(128, 256, kernel_size=(3, 3), stride=(1, 1), padding=(1, 1))
    (11): ReLU(inplace=True)
    (12): Conv2d(256, 256, kernel_size=(3, 3), stride=(1, 1), padding=(1, 1))
    (13): ReLU(inplace=True)
    (14): Conv2d(256, 256, kernel_size=(3, 3), stride=(1, 1), padding=(1, 1))
    (15): ReLU(inplace=True)
    (16): MaxPool2d(kernel_size=2, stride=2, padding=0, dilation=1, ceil_mode=True)
    (17): Conv2d(256, 512, kernel_size=(3, 3), stride=(1, 1), padding=(1, 1))
    (18): ReLU(inplace=True)
    (19): Conv2d(512, 512, kernel_size=(3, 3), stride=(1, 1), padding=(1, 1))
    (20): ReLU(inplace=True)
    (21): Conv2d(512, 512, kernel_size=(3, 3), stride=(1, 1), padding=(1, 1))
    (22): ReLU(inplace=True)
    (23): MaxPool2d(kernel_size=2, stride=2, padding=0, dilation=1, ceil_mode=False)
    (24): Conv2d(512, 512, kernel_size=(3, 3), stride=(1, 1), padding=(1, 1))
    (25): ReLU(inplace=True)
    (26): Conv2d(512, 512, kernel_size=(3, 3), stride=(1, 1), padding=(1, 1))
    (27): ReLU(inplace=True)
    (28): Conv2d(512, 512, kernel_size=(3, 3), stride=(1, 1), padding=(1, 1))
    (29): ReLU(inplace=True)
    (30): MaxPool2d(kernel_size=2, stride=2, padding=0, dilation=1, ceil_mode=False)
    (31): Conv2d(512, 1024, kernel_size=(3, 3), stride=(1, 1), padding=(3, 3), dilation=(3, 3))
    (32): ReLU(inplace=True)
    (33): Conv2d(1024, 1024, kernel_size=(1, 1), stride=(1, 1))
    (34): ReLU(inplace=True)
  )
  (conv4_3_L2Norm): L2Norm()
  (conv5_3_L2Norm): L2Norm()
  (extras): ModuleList(
    (0): Conv2d(1024, 256, kernel_size=(1, 1), stride=(1, 1))
    (1): Conv2d(256, 512, kernel_size=(3, 3), stride=(2, 2), padding=(1, 1))
  )
  (arm_loc): ModuleList(
    (0-1): 2 x Conv2d(512, 12, kernel_size=(3, 3), stride=(1, 1), padding=(1, 1))
    (2): Conv2d(1024, 12, kernel_size=(3, 3), stride=(1, 1), padding=(1, 1))
    (3): Conv2d(512, 12, kernel_size=(3, 3), stride=(1, 1), padding=(1, 1))
  )
  (arm_conf): ModuleList(
    (0-1): 2 x Conv2d(512, 6, kernel_size=(3, 3), stride=(1, 1), padding=(1, 1))
    (2): Conv2d(1024, 6, kernel_size=(3, 3), stride=(1, 1), padding=(1, 1))
    (3): Conv2d(512, 6, kernel_size=(3, 3), stride=(1, 1), padding=(1, 1))
  )
  (odm_loc): ModuleList(
    (0-3): 4 x Conv2d(256, 12, kernel_size=(3, 3), stride=(1, 1), padding=(1, 1))
  )
  (odm_conf): ModuleList(
    (0-3): 4 x Conv2d(256, 30, kernel_size=(3, 3), stride=(1, 1), padding=(1, 1))
  )
  (tcb0): ModuleList(
    (0): Conv2d(512, 256, kernel_size=(3, 3), stride=(1, 1), padding=(1, 1))
    (1): ReLU(inplace=True)
    (2): Conv2d(256, 256, kernel_size=(3, 3), stride=(1, 1), padding=(1, 1))
    (3): Conv2d(512, 256, kernel_size=(3, 3), stride=(1, 1), padding=(1, 1))
    (4): ReLU(inplace=True)
    (5): Conv2d(256, 256, kernel_size=(3, 3), stride=(1, 1), padding=(1, 1))
    (6): Conv2d(1024, 256, kernel_size=(3, 3), stride=(1, 1), padding=(1, 1))
    (7): ReLU(inplace=True)
    (8): Conv2d(256, 256, kernel_size=(3, 3), stride=(1, 1), padding=(1, 1))
    (9): Conv2d(512, 256, kernel_size=(3, 3), stride=(1, 1), padding=(1, 1))
    (10): ReLU(inplace=True)
    (11): Conv2d(256, 256, kernel_size=(3, 3), stride=(1, 1), padding=(1, 1))
  )
  (tcb1): ModuleList(
    (0-2): 3 x ConvTranspose2d(256, 256, kernel_size=(2, 2), stride=(2, 2))
  )
  (tcb2): ModuleList(
    (0): ReLU(inplace=True)
    (1): Conv2d(256, 256, kernel_size=(3, 3), stride=(1, 1), padding=(1, 1))
    (2-3): 2 x ReLU(inplace=True)
    (4): Conv2d(256, 256, kernel_size=(3, 3), stride=(1, 1), padding=(1, 1))
    (5-6): 2 x ReLU(inplace=True)
    (7): Conv2d(256, 256, kernel_size=(3, 3), stride=(1, 1), padding=(1, 1))
    (8-9): 2 x ReLU(inplace=True)
    (10): Conv2d(256, 256, kernel_size=(3, 3), stride=(1, 1), padding=(1, 1))
    (11): ReLU(inplace=True)
  )
  (tcb_0): ModuleList(
    (0): Conv2d(256, 256, kernel_size=(3, 3), stride=(1, 1), padding=(1, 1))
    (1): ReLU(inplace=True)
    (2-3): 2 x Conv2d(256, 256, kernel_size=(3, 3), stride=(1, 1), padding=(1, 1))
    (4): ReLU(inplace=True)
    (5-6): 2 x Conv2d(256, 256, kernel_size=(3, 3), stride=(1, 1), padding=(1, 1))
    (7): ReLU(inplace=True)
    (8-9): 2 x Conv2d(256, 256, kernel_size=(3, 3), stride=(1, 1), padding=(1, 1))
    (10): ReLU(inplace=True)
    (11): Conv2d(256, 256, kernel_size=(3, 3), stride=(1, 1), padding=(1, 1))
  )
  (tcb_1): ModuleList(
    (0-2): 3 x Conv2d(256, 256, kernel_size=(3, 3), stride=(2, 2), padding=(1, 1))
  )
  (tcb_2): ModuleList(
    (0): ReLU(inplace=True)
    (1): Conv2d(256, 256, kernel_size=(3, 3), stride=(1, 1), padding=(1, 1))
    (2-3): 2 x ReLU(inplace=True)
    (4): Conv2d(256, 256, kernel_size=(3, 3), stride=(1, 1), padding=(1, 1))
    (5-6): 2 x ReLU(inplace=True)
    (7): Conv2d(256, 256, kernel_size=(3, 3), stride=(1, 1), padding=(1, 1))
    (8-9): 2 x ReLU(inplace=True)
    (10): Conv2d(256, 256, kernel_size=(3, 3), stride=(1, 1), padding=(1, 1))
    (11): ReLU(inplace=True)
  )
  (list_cam): ModuleList(
    (0-1): 2 x CAM(
      (avg_pool): AdaptiveAvgPool2d(output_size=1)
      (max_pool): AdaptiveMaxPool2d(output_size=1)
      (fc1): Conv2d(512, 32, kernel_size=(1, 1), stride=(1, 1))
      (relu): ReLU(inplace=True)
      (fc2): Conv2d(32, 512, kernel_size=(1, 1), stride=(1, 1))
      (sigmoid_channel): Sigmoid()
      (conv_after_concat): Conv2d(2, 1, kernel_size=(3, 3), stride=(1, 1), padding=(1, 1))
      (sigmoid_spatial): Sigmoid()
    )
    (2): CAM(
      (avg_pool): AdaptiveAvgPool2d(output_size=1)
      (max_pool): AdaptiveMaxPool2d(output_size=1)
      (fc1): Conv2d(1024, 64, kernel_size=(1, 1), stride=(1, 1))
      (relu): ReLU(inplace=True)
      (fc2): Conv2d(64, 1024, kernel_size=(1, 1), stride=(1, 1))
      (sigmoid_channel): Sigmoid()
      (conv_after_concat): Conv2d(2, 1, kernel_size=(3, 3), stride=(1, 1), padding=(1, 1))
      (sigmoid_spatial): Sigmoid()
    )
    (3): CAM(
      (avg_pool): AdaptiveAvgPool2d(output_size=1)
      (max_pool): AdaptiveMaxPool2d(output_size=1)
      (fc1): Conv2d(512, 32, kernel_size=(1, 1), stride=(1, 1))
      (relu): ReLU(inplace=True)
      (fc2): Conv2d(32, 512, kernel_size=(1, 1), stride=(1, 1))
      (sigmoid_channel): Sigmoid()
      (conv_after_concat): Conv2d(2, 1, kernel_size=(3, 3), stride=(1, 1), padding=(1, 1))
      (sigmoid_spatial): Sigmoid()
    )
    (4-7): 4 x CAM(
      (avg_pool): AdaptiveAvgPool2d(output_size=1)
      (max_pool): AdaptiveMaxPool2d(output_size=1)
      (fc1): Conv2d(256, 16, kernel_size=(1, 1), stride=(1, 1))
      (relu): ReLU(inplace=True)
      (fc2): Conv2d(16, 256, kernel_size=(1, 1), stride=(1, 1))
      (sigmoid_channel): Sigmoid()
      (conv_after_concat): Conv2d(2, 1, kernel_size=(3, 3), stride=(1, 1), padding=(1, 1))
      (sigmoid_spatial): Sigmoid()
    )
  )
)
Loading base network...
Initializing weights...
Using L1 smooth loss
Loading the dataset...
1674
Training RefineDet on: VOC0712
Using the specified args:
Namespace(dataset='VOC', input_size='320', dataset_root='data/FABRICdatasets/VOCdevkit/', basenet='weights/vgg16_reducedfc.pth', batch_size=32
…
